data.pth (torch, 5015 bytes, 6 tensors)

l1.weight f4 [8, 54]
0	0x3e850d22	0.25986582
1	0x3f2ac3a1	0.66704756
2	0xbef766d8	-0.4832065
3	0xbd80068f	-0.06251251
4	0xbd87026d	-0.065922596
5	0x3e7d9acf	0.24766086
6	0xbe4ed72c	-0.20199269
7	0xbedd7d56	-0.43259686
8	0xbec8b2de	-0.39198965
9	0xbef1189e	-0.47089094
10	0x3d0eca8e	0.03486114
11	0x3f048293	0.5176174
12	0x3dbcb134	0.09213486
13	0x3efc5771	0.49285462
14	0x3eea5164	0.4576522
15	0x3e8d831f	0.276391
16	0xbdeb5e37	-0.114925794
17	0x3d9819e4	0.07426813
18	0x3e5d9af3	0.2164114
19	0xbe9377b3	-0.2880226
20	0x3eb09c4e	0.3449425
21	0xbe5094e0	-0.20369291
22	0xbe69dee9	-0.2283894
23	0x3e2cc5bd	0.16872306
24	0x3e8839b6	0.2660653
25	0xbcd32eb7	-0.025779111
26	0x3ec205f6	0.37895173
27	0x3f442c1d	0.7662981
28	0x3e8826a6	0.26591986
29	0x3f2e5803	0.68103045
30	0x3c5758f4	0.013143767
31	0x3f1baaf5	0.60807735
32	0x3e9e0395	0.30862108
33	0xbec3f434	-0.3827225
34	0x3f3f521c	0.74734664
35	0x3eb8850d	0.3603901
36	0x3e7c8f42	0.24664024
37	0xbed4b5a3	-0.41544828
38	0xbe893197	-0.26795647
39	0xbe5d2995	-0.21597894
40	0x3d679dfb	0.056547146
41	0x3ebc45f7	0.3677213
42	0x3edf2d97	0.4358947
43	0x3f2ab6d5	0.6668523
44	0xbd7f55c0	-0.062337637
45	0x3f4434b8	0.7664294
46	0x3f1cb5fd	0.6121519
47	0x3ee0988e	0.4386639
48	0x3e48c0d3	0.19604807
49	0x3eae6018	0.3405769
50	0x3ec61a86	0.3869211
51	0x3e9801cd	0.29688874
52	0xbe4fe1d0	-0.20300984
53	0x3e804d54	0.25058997
54	0xbd60e5b6	-0.05490657
55	0xbecfb44f	-0.40567252
56	0x3eb75ea1	0.35814384
57	0x3ed94737	0.42437145
58	0x3f0f6d40	0.5602608
59	0xbf00d37e	-0.5032271
60	0x3ea6b830	0.325624
61	0x3edcbc1d	0.4311227
62	0x3ec3a688	0.3821299
63	0x3f11dbd8	0.5697608
64	0x3ed2b347	0.41152403
65	0x3f0bb547	0.5457348
66	0x3f2a5eec	0.6655109
67	0x3f2838ff	0.6571197
68	0xbe646873	-0.22305469
69	0x3ec98855	0.39361826
70	0x3ec01754	0.37517798
71	0xbf00c7f3	-0.503051
72	0x3dedc6a8	0.11610156
73	0x3f44093d	0.76576596
74	0xbe8a008a	-0.26953536
75	0x3f0b83f6	0.5449823
76	0x3f39852f	0.7246885
77	0x3f228b8b	0.63494176
78	0x3f0d248e	0.55133903
79	0x3ead7abf	0.3388271
80	0x3d73d6fe	0.059531204
81	0xbed5f78d	-0.4179043
82	0x3ca00d1b	0.0195375
83	0xbebf7883	-0.3739663
84	0xbeaa7bcc	-0.33297575
85	0x3f0423e9	0.51617295
86	0xbde478e2	-0.11155869
87	0x3f01424a	0.50491774
88	0xbd78db89	-0.06075624
89	0x3ecec919	0.403878
90	0xbe42c419	-0.19020118
91	0x3efaa1e8	0.4895165
92	0x3ee39e3e	0.44456667
93	0x3e917b8a	0.28414565
94	0xbe133423	-0.14375357
95	0xbe2875b3	-0.16451149
96	0x3eef40fc	0.46729267
97	0xbe17992c	-0.14804524
98	0x3f1f226d	0.62161905
99	0xbd3a123b	-0.045427542
100	0xbf00d8df	-0.5033092
101	0xbe36f237	-0.17865835
102	0x3eb3c042	0.3510762
103	0xbe0ed4d4	-0.13948375
104	0x3ee8f0e9	0.454963
105	0x3d91c9b5	0.07118551
106	0x3ef29a8a	0.4738353
107	0x3d885d63	0.06658437
108	0x3f13e0af	0.57764715
109	0x3f020d13	0.508012
110	0xbebc39b5	-0.36762777
111	0x3ec12fac	0.37731683
112	0xbd0882e1	-0.03332794
113	0xbf19ff2b	-0.6015498
114	0xbe7cd1e5	-0.24689443
115	0xbf02d991	-0.5111323
116	0xbec99e4b	-0.3937858
117	0xbedca1cc	-0.4309219
118	0x3eff5b95	0.4987456
119	0x3f3e994b	0.74452657
120	0xbc984b0f	-0.018590478
121	0x3f2e39f3	0.68057173
122	0x3eb47483	0.3524514
123	0x3f105735	0.5638307
124	0x3ea116e2	0.3146277
125	0xbf19e34a	-0.6011244
126	0xbe2a7bfe	-0.16648862
127	0x3f1c1cf5	0.60981685
128	0x3f01cc7c	0.50702643
129	0x3f248eb4	0.6428025
130	0x3f18856d	0.5957859
131	0x3f2fc042	0.6865274
132	0x3ee74da9	0.45176437
133	0x3ebbae2e	0.36656326
134	0xbda381e7	-0.07983761
135	0x3ec20f32	0.37902218
136	0xbe6194f7	-0.22029482
137	0x3ef48f41	0.47765544
138	0xbe8fface	-0.28121036
139	0x3f383b19	0.71965176
140	0x3eba8d4a	0.3643592
141	0xbeb2b1f1	-0.34901384
142	0x3e95f249	0.2928641
143	0x3ec6dffb	0.3884276
144	0xbe3873ef	-0.18012975
145	0xbe9d9f5c	-0.30785644
146	0xbea5ff66	-0.32421416
147	0xbe6e54a1	-0.23274471
148	0xbee853bb	-0.4537638
149	0xbdc1638f	-0.094428174
150	0x3f3c97e8	0.7366929
151	0x3ed65a2c	0.4186567
152	0x3f03211b	0.5122239
153	0x3eb90969	0.36139992
154	0x3f8cc3be	1.0997236
155	0x3f07f585	0.5310901
156	0x3e6470fe	0.22308728
157	0xbe36dc31	-0.17857434
158	0x3f06be6d	0.52634317
159	0xbdeaf049	-0.11471612
160	0xbe5d3ebb	-0.21605961
161	0x3e092336	0.13392338
162	0x3edae0f9	0.42749766
163	0x3ed8b630	0.42326498
164	0xbe836cf1	-0.25669053
165	0x3e9a8641	0.30180553
166	0x3dadad49	0.08480317
167	0x3f04f067	0.51929325
168	0xbe44dc49	-0.19224657
169	0xbe9b8884	-0.3037759
170	0xbf01a923	-0.5064871
171	0xbdef53b7	-0.11685889
172	0x3ecd1c02	0.4006043
173	0xbe91c05b	-0.28467068
174	0xbe9a1256	-0.30092114
175	0xbee73f06	-0.4516527
176	0x3eb43e8a	0.35203964
177	0xbd8209d9	-0.063495345
178	0x3ea92f74	0.33044016
179	0x3f223e41	0.6337624
180	0xbe8b6b83	-0.27230462
181	0x3f1e20b4	0.6176865
182	0x3eb0ccbd	0.34531203
183	0x3f0d0896	0.55091226
184	0x3f022a46	0.50845754
185	0x3ecc4df8	0.39903235
186	0xbe7b2dd9	-0.24529208
187	0x3ed2b35c	0.41152465
188	0xbe625541	-0.22102834
189	0x3ead1702	0.33806616
190	0xbdf7e223	-0.12103679
191	0x3ed308cd	0.41217652
192	0x3eb449ff	0.35212705
193	0xbe65c8a1	-0.22439815
194	0x3e13ff3d	0.14452834
195	0xbeb19cb3	-0.34689865
196	0x3ea09280	0.3136177
197	0xbc56b63d	-0.013104972
198	0xbebbfc5d	-0.36715975
199	0xbebff6d7	-0.3749301
200	0xbe5a0a97	-0.21293102
201	0xbe5e7a6f	-0.21726392
202	0x3ea54a67	0.32283327
203	0xbeeb18bd	-0.4591731
204	0xbe91d050	-0.28479242
205	0x3e862d32	0.26206356
206	0xbee13819	-0.43988112
207	0x3e829a64	0.25508416
208	0x3f234292	0.63773453
209	0x3e65e18c	0.2244932
210	0x3ccb642e	0.024828043
211	0xbecd7567	-0.40128633
212	0xbdc0fbba	-0.09423013
213	0xbebbfa99	-0.36714628
214	0xbde44487	-0.11145883
215	0x3e23ac94	0.15983802
216	0xbe91272c	-0.28350198
217	0x3f2e4b37	0.6808352
218	0x3c9f3a95	0.019437114
219	0xbebc6e61	-0.36802962
220	0xbe7b93fd	-0.24568172
221	0x3f20f232	0.6286956
222	0x3e9922fc	0.29909503
223	0x3e53ec81	0.20695688
224	0x3ecb9009	0.39758328
225	0x3ecbce86	0.39806002
226	0xbe7ba945	-0.2457629
227	0xbe343f9a	-0.17602387
228	0x3f05498a	0.52065337
229	0x3e081911	0.13290812
230	0x3ee8e774	0.45489085
231	0xbeb82d0d	-0.3597187
232	0xbe8cd69c	-0.27507484
233	0x3f3158d5	0.6927617
234	0x3ec653c4	0.38735783
235	0xbee44185	-0.44581237
236	0xbdf06d2a	-0.117395714
237	0xbf01a0ff	-0.50636286
238	0xbefd12d6	-0.49428433
239	0xbeed6275	-0.4636418
240	0x3dbaa3ba	0.091132596
241	0xbe9c2ca7	-0.30502817
242	0x3f048e27	0.5177941
243	0x3f24dbb4	0.6439774
244	0x3e4cfbe7	0.20017968
245	0x3e88b093	0.26697215
246	0x3edc3d9a	0.43015748
247	0x3eb5e61b	0.3552712
248	0xbe27de21	-0.16393329
249	0xbdf35104	-0.11880687
250	0x3f262bec	0.6491077
251	0xbeb4ab87	-0.35287115
252	0x3e829408	0.25503564
253	0x3edd32ed	0.43202916
254	0x3ed19605	0.40934768
255	0x3eac8272	0.33693272

l1.bias f4 [8]
0	0x3f1f7106	0.62281835
1	0x3f00c550	0.50301075
2	0x3f19e7f8	0.6011958
3	0x3f803434	1.0015931
4	0x3f0559df	0.5209026
5	0x3ebfdd16	0.37473363
6	0x3f2e863f	0.68173593
7	0x3ef80425	0.48440662

l2.weight f4 [8, 8]
0	0xbef59696	-0.4796645
1	0x3f3e510f	0.74342436
2	0xbf5ada0a	-0.8548895
3	0x3eb22902	0.3479691
4	0x3f8c323f	1.0952834
5	0x3f82ae99	1.0209533
6	0x3f9de7e6	1.2336395
7	0x3f977b05	1.1834418
8	0x3f7a5657	0.97787994
9	0x3d5a70d9	0.053330276
10	0x3f4480fd	0.7675932
11	0xbe40a72e	-0.18813774
12	0x3ed27ddc	0.41111648
13	0x3f3bcba4	0.73357606
14	0xbf151aee	-0.58244216
15	0xbecba6fc	-0.39775836
16	0x3ecc7615	0.3993384
17	0x3f2bcd30	0.67109966
18	0x3ea9ea2e	0.33186477
19	0xbf641e8a	-0.891091
20	0x3f2e8367	0.68169254
21	0x3f5d7115	0.86500674
22	0xbe18f0b1	-0.14935566
23	0xbd41fc1b	-0.047359567
24	0x3f478277	0.7793345
25	0x3eebb8cc	0.46039426
26	0x3f5de526	0.8667778
27	0x3fa5af3a	1.29441
28	0xbedb3065	-0.4281036
29	0xbf3bdc51	-0.7338305
30	0x3edc8c9a	0.4307602
31	0xbee55e64	-0.44798577
32	0x3fa12096	1.258807
33	0xbf2fc6cb	-0.6866271
34	0xbec5a097	-0.38599083
35	0x3f2ea590	0.6822138
36	0x3fb14bc6	1.3851249
37	0x3e95b7f8	0.2924192
38	0xbf081f8c	-0.53173137
39	0x3cc13393	0.023584163
40	0x3f45c64e	0.77255714
41	0xbf3c31da	-0.7351357
42	0x3eb75f16	0.35814732
43	0x3ecca082	0.39966208
44	0xbf66cfa7	-0.901606
45	0xbed2bfcb	-0.4116195
46	0xbf480cd1	-0.78144556
47	0xbe4295e6	-0.19002494
48	0xbe17c181	-0.1481991
49	0xbf46b6e4	-0.7762282
50	0x3f3e519b	0.7434327
51	0x3eefa124	0.46802628
52	0xbf251d25	-0.64497596
53	0xbe35835a	-0.17725888
54	0xbf501045	-0.81274825
55	0x3f6f0ab8	0.9337573
56	0x3d6ded61	0.05808771
57	0x3f6135ea	0.8797289
58	0x3f92e76f	1.1476878
59	0x3df4659c	0.11933443
60	0xbf8d1939	-1.1023322
61	0x3efa917b	0.48939118
62	0x3f1909de	0.5978068
63	0x3ed3cb92	0.4136625

l2.bias f4 [8]
0	0x3f69a306	0.9126438
1	0xbeb236a6	-0.34807318
2	0x3e004dc2	0.12529662
3	0x3f32e2a5	0.6987708
4	0x3e98481e	0.2974252
5	0x3efc168e	0.49235958
6	0xbd78fe68	-0.060789496
7	0x3e6257f7	0.22103868

l3.weight f4 [7, 8]
0	0x3d9457f2	0.07243337
1	0x3f08a65f	0.5337886
2	0x3e362396	0.17787012
3	0xbf04f46f	-0.51935476
4	0xbf9d8a0f	-1.2307757
5	0xbe8da00c	-0.2766117
6	0xbf071ccf	-0.52778333
7	0x3f114fa5	0.5676215
8	0xbf5ddd80	-0.8666611
9	0x3edff1db	0.4373921
10	0x3ceef0e3	0.029167598
11	0x3ed26397	0.41091606
12	0x3f00365d	0.5008295
13	0x3dccfd5d	0.10009263
14	0xbf8fee8a	-1.1244671
15	0xbf4e4513	-0.8057415
16	0x3f2d175e	0.6761378
17	0xbf8d8987	-1.1057595
18	0xbf92606d	-1.1435677
19	0x3e05e25e	0.13074633
20	0x3f27bf4c	0.6552627
21	0xbf0db374	-0.5535195
22	0xbf8c1142	-1.0942767
23	0xbf5ad0ad	-0.85474664
24	0x3dca0b9d	0.09865496
25	0xbf92d323	-1.1470684
26	0xbf7347e6	-0.95031583
27	0x3f84ee20	1.038517
28	0xbfa681f0	-1.3008404
29	0xbf0803d1	-0.53130823
30	0xbf88cfd8	-1.0688429
31	0x3f0163ce	0.50542915
32	0x3c79d3a1	0.01524821
33	0x3ee8a13a	0.45435506
34	0x3f334375	0.70024806
35	0xbf93fc99	-1.1561462
36	0x3e9c61bf	0.30543324
37	0xbea24b5f	-0.3169813
38	0xbf19af4d	-0.6003311
39	0xbee3de7d	-0.44505683
40	0x3f4bfa96	0.7967924
41	0xbf806afd	-1.003265
42	0x3ecb5b89	0.39718273
43	0xbf965e84	-1.1747594
44	0xbf84bba5	-1.0369765
45	0xbe4780db	-0.19482748
46	0xbecb4622	-0.39701945
47	0x3e8972e6	0.26845473
48	0xbf8565be	-1.0421674
49	0xbdb57dfc	-0.0886192
50	0xbf42bf21	-0.7607289
51	0x3ed78813	0.42096004
52	0x3ae1a7b2	0.0017216115
53	0x3f3d6495	0.739816
54	0x3fb85fa5	1.4404188
55	0x3e368eeb	0.17827956

l3.bias f4 [7]
0	0xbed7f0bf	-0.42175862
1	0xbe152ddb	-0.14568274
2	0x3e803cb4	0.25046313
3	0x3ecbbbf6	0.3979184
4	0xbd9137ea	-0.07090743
5	0xbc8277dc	-0.015926294
6	0x3d0f444a	0.034977235
